digits_classifier.pt (torch, 440087 bytes, 6 tensors)

weight f4 [128, 784]
00000000: 9135 d03c 4120 343d 5a85 2a3c 08a4 683c
00000010: 1951 82bc 4e80 35bb 6380 973c ae1f fc3c
00000020: cfe8 bc3c f07a 5dba cdbe 033d 27a8 53bb
00000030: 39a0 923b 9503 cd3c 7bb5 69bb d24f d3bb
00000040: 68c0 4bbc ed7d 3c3d bfb6 253d f510 503d
00000050: 3a02 47bc fb41 e63c 294f a93b 03e3 a13c
00000060: e662 cb3b 6e61 543c e903 373d da43 34bb
00000070: 924d 44bc a646 363c 36b1 ba3a f7a0 053d
00000080: 8b66 fdbb 25ec 263d 06d4 ee3c 35c6 393d
00000090: a7eb 8a3b 8d6e 0fbc 4ef7 c33c 0ffd 363d
000000a0: 2238 1f3c b817 013d 3fe2 6eba f36b ed3c
000000b0: 1a6a 4b3c 23e5 98bb 3276 df3c dd2b 7cba
000000c0: 0bd1 0c3d b567 113d fbb8 a7bb 54b0 33bb
000000d0: d2e8 8abc 36c6 5bbc 69ab 323d 9f5c 263d
000000e0: 9114 f83b cd10 043d 9dfc 523d 177b 41bb
000000f0: 0f71 093c 797f 483d 85fa 013d df4b 2d3d
00000100: fada 5bbc d6f5 493d 74c9 113c 556e 323d
00000110: 1feb acbb a6ef aa3c 37e4 babb bb4e 173d
00000120: ca8e 0cbc 05c4 743c 9764 5dbc 69bd 433d
00000130: a37b 31bc 84c4 893b 68bb 9a3c cdc3 a83c
00000140: eb0b 303c 144a 6138 e7eb 3a3d b7ad 983c
00000150: b778 3b3d c0c5 6e3c 5267 85ba c307 2abc
00000160: 797f 00bb 600b 92bc fccf 863c fc97 cc3c
00000170: ed0b 2e39 2f60 313b 5109 e7bb 7b80 773c
00000180: 5664 74bc acdc 29bd 0f85 8fbd 21e8 9ebc
00000190: 5c52 0abd e5a8 f9bc 8581 663b 1b9e 50bc
000001a0: c09f 263c 132a 433c b1c0 84ba 7e81 3a3d
000001b0: 5cb1 59ba e330 ed3b bf76 48ba ad57 ea3c
000001c0: 5248 07bc f0ff 06bc ec6b 1bbc 010f 123d
000001d0: 9f1e a63b f436 063c 2307 8ebc 5a86 073d
000001e0: 19ea a03c 9d17 0e3c a5cd 37bc afb1 033d
000001f0: f674 583d 9bb4 ba3d 4838 dfbc 661b 2bbd
00000200: d99e 4abd ffe1 9abd 4229 ae3c a6ee 3e3d
00000210: e64f 7cbd 9f8d b93b 0f2c 4bbc 4e1a fdbc
00000220: 94e2 04bd 2cd7 d23c 9ea4 173d aba9 3a3d
00000230: 99b2 59bb b781 563d 14bf 153d 9452 773c
00000240: b7a6 273d 57a2 d83c d2fc 2abb 2162 053b
00000250: b009 893c 4268 c3bc b78e 8fbc 055a a1bc
00000260: 4e61 27bd cba9 a3bc 762f 65bd b10f 6cbd
00000270: 8d31 cabd b32b b1bd b8db 2cbd 9654 45bd
00000280: a815 d9bc c179 68bc daf8 163b 599a 263d
00000290: 09f3 603d a4a5 1d3d 692d 903c 17f9 95bc
000002a0: 2060 983b 258a d73c e68b 8abc 6283 293a
000002b0: 30a9 47bc de37 e13b e460 243a d057 5abd
000002c0: c150 5dbd 10d8 6ebc c806 bdbc 79ac d03c
000002d0: dd28 a83c e563 40bd 00f1 90bd 0aae 41bd
000002e0: a3e1 86bd af05 2a3d 7419 f13d 021b 063d
000002f0: d463 a3bc 2660 803d 3a06 033d 2ca0 49bc
00000300: c99e 08bd 9d1a a6bc 15a8 343d db8b eb3c
00000310: 3100 2f3d 22b5 8b3c ddd3 d63c bba7 143d
00000320: 7451 963c 54b0 1dbd d74c ebbc 952e adbd
00000330: 43f2 b2bd 4c90 af3c a9ea 9c3d cfba 453d
00000340: 7038 d2bc 6a7c d239 4e9d 00bd 5fcf 9bbd
00000350: 5404 e23c 659e ca3c 9be3 a33c 2ec3 9e3d
00000360: a192 973c 71df 20bc 87bd d0bc e7d6 1fbd
00000370: 374e a9bc a6d1 df3c 1b9e 213d 2c03 06bc
00000380: 39ef db3c 5035 40bc 9203 163d f7ed 293c
00000390: 4441 3a3d f3a4 773c 0183 8cbd 97d4 a9bc
000003a0: fbe0 3f3d c46f 583c a8be 2b3d ce10 713c
000003b0: 66a0 ed3b 74e9 593c 2f91 febc a0d8 4dbd
000003c0: d3ad bebd 6658 923c 33da 1e3d 1ab2 883c
000003d0: aa7a 1abe 166b e0bd d66c a9bd afb6 2abd
000003e0: c85e 80bc bc47 db3c 589e 593c 9a89 dc3c
000003f0: 38e1 633c 4fe3 093b ad5f c8bb 4bf2 2b3c
0.025416167 0.043976072 0.01040777 0.014199264 -0.015907811 -0.0027694884 0.018493837 0.030776825
0.02306023 -0.00084488 0.032164384 -0.0032296272 0.0044746664 0.025026122 -0.003566115 -0.0064487243
-0.01243601 0.04601853 0.040457483 0.05079742 -0.012146527 0.028107634 0.0051669073 0.019761568
0.006206858 0.012962682 0.044681463 -0.0027506263 -0.011981385 0.011125242 0.0014243487 0.03262421
-0.0077331713 0.04075255 0.029153835 0.04535504 0.0042395177 -0.008754385 0.023921635 0.04467493
0.009717973 0.03151676 -0.0009112693 0.028982138 0.012415433 -0.004665987 0.02727804 -0.0009619573
0.034379046 0.035499293 -0.005118487 -0.0027418332 -0.01695672 -0.013413956 0.0436205 0.040615674
0.007570811 0.032242585 0.051510442 -0.002952283 0.008388772 0.048949692 0.031733055 0.042308684
-0.013418907 0.049306713 0.008898128 0.043562252 -0.005277052 0.020866226 -0.005703475 0.036940318
-0.008578965 0.014939313 -0.013512752 0.047788057 -0.0108327 0.0042043347 0.01888819 0.020601178
0.010745029 5.371317e-05 0.04563513 0.018637521 0.04576942 0.014573514 -0.0010177887 -0.010377827
-0.001960723 -0.01782769 0.016456597 0.024974816 0.00016598376 0.0027065387 -0.007050671 0.015106316
-0.0149165 -0.041470215 -0.07007801 -0.019397797 -0.03376995 -0.030476043 0.0035172415 -0.012733008
0.010169923 0.011911887 -0.0010128227 0.04553365 -0.00083043217 0.0072384938 -0.0007647089 0.02860626
-0.008256989 -0.008239731 -0.00948618 0.03565884 0.0050695683 0.008191813 -0.017337387 0.033087112
0.019642876 0.008672622 -0.011218463 0.032151874 0.052845918 0.09116479 -0.027248517 -0.041774176
-0.049467895 -0.075626366 0.021259908 0.04661431 -0.061599635 0.0056626345 -0.012400641 -0.030896332
-0.032442644 0.025737368 0.037022226 0.045571964 -0.0033218025 0.0523698 0.03655918 0.015095372
0.040930476 0.026444597 -0.0026090634 0.002035268 0.016728252 -0.023853425 -0.017524106 -0.019696245
-0.04086428 -0.019978425 -0.055953465 -0.057632152 -0.09872732 -0.08650913 -0.042201728 -0.04817637
-0.026499584 -0.014189185 0.002303651 0.04067454 0.054919276 0.038488045 0.017599778 -0.018307252
0.004650131 0.02631099 -0.016912412 0.0006466416 -0.012186334 0.006873115 0.00062705413 -0.0533064
-0.05403209 -0.0145778805 -0.023074523 0.025472866 0.020527298 -0.046970267 -0.07077217 -0.047285117
-0.065860055 0.041509327 0.11772433 0.0327406 -0.019945063 0.06268339 0.03198836 -0.012306254
-0.033354554 -0.020276362 0.044105608 0.028753212 0.042724792 0.017054144 0.026224071 0.036292773
0.018349387 -0.038498238 -0.028723164 -0.084561504 -0.08737614 0.02143111 0.076619454 0.048273858
-0.025661677 0.00040147017 -0.031400017 -0.07607912 0.027589954 0.024733732 0.020005992 0.07752071
0.018502535 -0.009818898 -0.025480999 -0.039023306 -0.020667179 0.027321648 0.03945742 -0.008179467
0.026847469 -0.011731461 0.0366245 0.010371677 0.0454724 0.015115011 -0.068609245 -0.020731254
0.046845417 0.013210241 0.04192987 0.014713479 0.007251787 0.0133002885 -0.031075088 -0.050255418
-0.09310498 0.017864417 0.03878231 0.016686488 -0.15085855 -0.10957925 -0.08272712 -0.041678127
-0.015670195 0.026767604 0.013282381 0.026921082 0.013908677 0.0021040027 -0.006114921 0.010494779

bias f4 [128]
00000000: c1c0 673c bf65 88bc 0d84 aa3c 031a 0b3d
00000010: b213 073c 2bcc babc d553 3f3a f886 b73c
00000020: 7e69 eabc d86b ddbc 33d4 113c 8168 a7bc
00000030: 7149 1f3c f683 48bc 50b9 c33c 04d8 99bc
00000040: efe8 1dbc 3d91 953c 9ce4 b43c ff2f 7dbb
00000050: 9858 81bc 47b5 8abc b67a d93c b0c3 da3c
00000060: 374a 5b3b 1594 b1ba aa2e a8bc 2acf db3c
00000070: 4a48 933b 584c d73c 5b3e 24bd a932 973c
00000080: 90de 3f3c 73ac dbbc 35f7 9f3c 2248 053d
00000090: 0af8 5fbc b0c6 533c 8807 c03c 8721 853c
000000a0: f3f6 173d bc40 14bd 8348 cfbc ccdd 783b
000000b0: ff11 023d 7358 acbb 7890 813c 01eb 19bc
000000c0: 556c dc3b ddf3 d9bb 4c14 2b3a 8038 a1bc
000000d0: 4062 993c 8483 13bc 3468 cc3c a370 38bc
000000e0: cfa9 a7bc b004 fa3c 110d c33c 816d d53b
000000f0: 6358 893c 8d91 b23c dbc6 d1bc 217c f9bc
00000100: 36d2 23bd 9b4e 1d3b 20b6 04bd a3dd 823c
00000110: e681 debc 0298 9a3c 83d7 f7bb 5053 da3b
00000120: 9525 4ebc bdfb ddbc e6c9 6ebc 9af1 e4ba
00000130: 9c86 cabb 64da c8bc 41bd 863b a3c7 dcbc
00000140: c887 68bd dd01 f13b 9add a63b 70fa 21bc
00000150: d109 d93c 946a e13c fbb9 dc3c 4dbe 15bd
00000160: c21f dcbc 6153 07bd 1216 e8ba e5e5 f33b
00000170: d04e 84bc eab5 983c 894d 853b 72ed 413d
00000180: ab8f ed3b d957 a93c 3876 6cbc b324 20bd
00000190: 04cf 0cbd ab66 a0bc d789 a0bb 12cb 10bc
000001a0: 9e29 d93b ae2b 043c e3e5 4f3c f6ca 103d
000001b0: f558 68bb 96e2 403c bfa4 d43c 93f2 0d3c
000001c0: dacb 53bc ee3f 663c 6fe3 1d3c 6e56 4fbc
000001d0: 8f6c 1eba 626e 83bc ba3a 86bb 72f1 b33b
000001e0: cc46 303c d6da e13c d4de 353c 9a9b 0f3a
000001f0: f6dd c7bc bc35 653c 8f70 2c3d 7a6b c2bc
0.014145077 -0.016650079 0.02081492 0.033960354 0.008244442 -0.022802433 0.0007298564 0.022403225
-0.028614756 -0.027028963 0.00890069 -0.020435574 0.0097221 -0.012238493 0.023892075 -0.018779762
-0.009638055 0.018257732 0.022081666 -0.0038633344 -0.015789315 -0.016932143 0.026547771 0.02670464
0.0033460984 -0.001354816 -0.020530064 0.026832182 0.0044947015 0.02628152 -0.04009853 0.018456774
0.011710778 -0.026815629 0.019527057 0.032539494 -0.013669977 0.012925789 0.023441091 0.016251339
0.037100744 -0.036194548 -0.025303131 0.0037973998 0.031755444 -0.0052595674 0.015815958 -0.009394408
0.0067267814 -0.006651385 0.0006526157 -0.019680262 0.018723607 -0.009003524 0.024952032 -0.011257323
-0.020466713 0.030519813 0.023809941 0.006513298 0.016765779 0.02179792 -0.025607517 -0.030454697
-0.039995395 0.0024003151 -0.03240025 0.015974825 -0.02716155 0.018871311 -0.007563533 0.0066627637
-0.012582202 -0.027097577 -0.0145745035 -0.0017467022 -0.0061805975 -0.0245182 0.0041119163 -0.026950663
-0.056770116 0.0073549584 0.005092335 -0.009886369 0.026493939 0.02751664 0.026944151 -0.036558438
-0.026870612 -0.0330385 -0.0017706773 0.007443177 -0.016150862 0.01864143 0.004068081 0.047345586
0.0072497926 0.020671772 -0.014432482 -0.0390975 -0.034377113 -0.019580206 -0.0048992443 -0.008837478
0.0066272756 0.008067055 0.012689087 0.03534981 -0.0035453413 0.011772772 0.025957463 0.008663791
-0.01292702 0.014053328 0.009636744 -0.012654884 -0.0006043398 -0.016043846 -0.004096356 0.005491429
0.010759067 0.02757017 0.01110049 0.00054782035 -0.024397831 0.013989862 0.04209953 -0.02373289

weight f4 [64, 128]
00000000: d54a 6cbd 5ee8 a33c e162 c63d ebec 1ebd
00000010: 29ae 603b d86b eb3d c6e0 1fbd 74e4 a4bd
00000020: bd52 c5bd 6214 1bbd 325d 0d3e 887c 553d
00000030: 1ed3 ba3d f3de 08be 4591 a1bd ce6d cdbd
00000040: d14d 033c e21f 913c cd3c 13be 53bd 32be
00000050: 716f 3ebe 4e37 1abe 3988 36bd d002 853c
00000060: 0a37 50bd 7c67 7cbb d42d 333d 007b d43d
00000070: 7ca5 fc3d b68e 4ebd 4e4a 063e ca4a b33d
00000080: d7f7 0b3e 8aa4 10be daed 8bbd 773a 36bc
00000090: ff65 37bd 962f 123e f8e2 2ebe 0544 173d
000000a0: 7849 5c3d 44c4 04bd 02e2 fe3d d79b aebd
000000b0: 7a9c a3bd 9303 37be f403 923d 3d2b 863d
000000c0: 9ece cbbd 3780 97bd 25fd d83b 25f8 3dbd
000000d0: 3ea0 293d 27e5 81bd 6f72 a03d 2626 61bd
000000e0: 699a 2d3e 9fad cd3d 6415 9a3c cc5a 5fbd
000000f0: 4542 0b3e b86a c53d 8d98 3e3d bb23 023e
00000100: 6888 07bd b1e3 c1bb 1756 83bd f4a0 25bd
00000110: 6697 843d b31a 4b3d 8bb5 d1bb 9ac6 643c
00000120: 97f8 15bc d3e9 bdbc 9149 85be df8f b5bd
00000130: e7ea 4d3e 653c 21be 6e9a 84be 0fbb 1bbe
00000140: 3ed0 913d 56d7 fd3c b15b fb3d 6178 28be
00000150: 087e 1abe 5ae4 a83d f0f5 acbd dd22 5fbd
00000160: d9c3 3f3d 8c64 5abe 3eb2 2e3d 8f6b 6f3e
00000170: 6613 6abd 400f 00bd a041 0e3e 0525 30bd
00000180: 8c2e 563d edee 41bd 802a e83d 1ee6 c13d
00000190: 0e37 06be 6e75 973c a427 f2bd 9e15 b2bc
000001a0: e6dd f53d 8386 2e3d 392b 1bbe dfa4 0bbe
000001b0: 4d7a 9d3d 4062 6f3d ac24 493d 99e5 223e
000001c0: db92 1a3e a9f3 173d bcd6 013e 9dc5 043e
000001d0: a110 94bd 50f7 7d3e cc56 953d d309 6fbd
000001e0: 52b5 0dbe 22b5 a1bd a694 a03d 9946 163e
000001f0: ae7f 013e aa07 f6bc feb1 4cbe 81b1 063e
00000200: 0c3c 35be cb17 cebd d66c b9bd 9ea9 f7bd
00000210: a11d 1dbe c52b 23be 8d01 e03c 31ac 86bb
00000220: b535 0e3e 9962 85bd 794c f23c 0a02 f33d
00000230: 0686 70bc 7c86 a0bd 2705 7abd 289a e33e
00000240: ec44 9ebc 9646 68bd 5d4f e93d 8d0f 8e3d
00000250: e1b8 6f3e 33fd eb3d 70c6 7b3c e10a 2e3e
00000260: c911 f43b 291f c4bd a18d c7bd 8b43 dc3d
00000270: 4f7f 12be e470 273d 6722 3d3e 6d87 df3c
00000280: 74e9 073e e9e7 9c3e e7a6 3fbd b49f d23d
00000290: 768e acbd 74a6 99bd cfba 6c3d db2f 803d
000002a0: a35e 843e ad04 e43d 8ae3 523d 0b5e 2abc
000002b0: 2f35 353e c15c 443e 06fe 113e dd7c 153e
000002c0: 4a7b b039 a395 67bd 7457 28bd e2e1 1c3b
000002d0: 0e4d 693c a2fc 86bd 15d9 2d3e bf5d 7b3d
000002e0: 952e 37ba fc17 bebb 4d32 f2bc cb5f 173d
000002f0: f501 c1bd fd75 893c ed8f 813d e6bc 153e
00000300: 80c7 d7bc 04d3 68bd 1141 acbd bf1e b5bd
00000310: 05a9 f1bd 0230 4c3d c5a5 08bc af63 9b3d
00000320: 35a9 58bd 3f78 22ba 8bea c13d 3930 dd3c
00000330: 42f7 033e 53b3 b03d 5eee c23d 0de5 05be
00000340: ccd1 723c 5970 733d ee7b 503e dfc4 333e
00000350: 5855 c3bd 2f0c 69be c25f 44be 1a05 603d
00000360: 107c d5bc 1654 17be 13ee 1d3e 1ae0 0abe
00000370: 6fd6 163d 012d 953d 880e dab8 88b0 8dbd
00000380: f30f 32bd 6ef1 f1bd d98e 083e e763 83be
00000390: 8aef ee3c 8f95 40bd 98fa 85bc fe38 f9bc
000003a0: 33b2 823e 83d6 123e b413 3fbe aab8 ac3d
000003b0: c42b 4f3d d8ae 04be c58d 373d ead6 54bd
000003c0: 93df 583e f3f6 cfbc 01c8 5fbd 6c75 02be
000003d0: f7ee 943d 7c31 92bd c5d6 3a3e d1f6 433e
000003e0: 122b 40bd 1b49 2d3d 9da3 fc3d ca64 b93d
000003f0: 95cb 04be d01d 453e 77d4 263e fc34 203e
-0.057688553 0.020008262 0.096868284 -0.03880016 0.0034283495 0.11495179 -0.03903272 -0.080513865
-0.09634922 -0.037861235 0.13805082 0.052120715 0.09122299 -0.13366298 -0.07889036 -0.10030709
0.008014158 0.017715398 -0.14378662 -0.17455034 -0.18597199 -0.1506016 -0.044563506 0.016236693
-0.05083374 -0.003851383 0.043744877 0.10375023 0.12336251 -0.05042907 0.13114282 0.08754499
0.13668762 -0.14125267 -0.06832476 -0.011122338 -0.044775005 0.14275965 -0.17078769 0.036930103
0.053781003 -0.032413736 0.12445451 -0.08525818 -0.0798883 -0.17872457 0.0712966 0.06551216
-0.099515185 -0.07397502 0.006621974 -0.046379227 0.041412584 -0.063425355 0.078343265 -0.05496802
0.16953434 0.10042881 0.018809028 -0.05452995 0.13599499 0.096394956 0.046532203 0.12708943
-0.03308907 -0.0059170355 -0.06412905 -0.0404367 0.064741895 0.04958601 -0.0063998154 0.013963366
-0.009153507 -0.023182785 -0.2603269 -0.08865332 0.2010914 -0.15745695 -0.2589907 -0.15208076
0.07119797 0.03098647 0.12273348 -0.16452171 -0.1508714 0.082466796 -0.08445346 -0.054476608
0.046817634 -0.21327418 0.042650454 0.23380874 -0.057147406 -0.031264544 0.13892221 -0.043004055
0.052290484 -0.047346998 0.11336231 0.094677195 -0.13106939 0.018488612 -0.11823967 -0.021738824
0.120052144 0.04260875 -0.15153207 -0.13637112 0.07689343 0.058443308 0.04910724 0.15907897
0.15095083 0.037097607 0.12679571 0.12966008 -0.07229734 0.24801373 0.07291946 -0.05835898
-0.138387 -0.078958765 0.078408524 0.14675368 0.12646362 -0.030032951 -0.19989774 0.1315365
-0.17698687 -0.10063132 -0.09053962 -0.12092899 -0.15343334 -0.15934666 0.02734449 -0.0041098823
0.13887675 -0.06512947 0.02957748 0.11865623 -0.014680391 -0.07838151 -0.06104007 0.4445355
-0.019319974 -0.05670794 0.113920905 0.0693656 0.2341037 0.11522903 0.015367135 0.16996337
0.007448409 -0.09576256 -0.097438104 0.1075507 -0.14306377 0.040879145 0.18470155 0.027286256
0.13272649 0.30645683 -0.04679003 0.10284367 -0.0842561 -0.075024515 0.057795342 0.06259128
0.25853452 0.11133704 0.05148653 -0.010398398 0.17696069 0.19176008 0.14257059 0.14598413
0.00033661193 -0.05653919 -0.041099027 0.0023938348 0.014239563 -0.06591155 0.16977341 0.0613687
-0.0006987837 -0.005801199 -0.029565 0.03695659 -0.094242014 0.016779894 0.0632628 0.1462284
-0.026340246 -0.056841865 -0.08410848 -0.08843755 -0.11799816 0.04985047 -0.008340304 0.075873725
-0.052895743 -0.00061977276 0.09468564 0.027000533 0.1288729 0.086279534 0.09518121 -0.13075657
0.014820527 0.059433315 0.20359775 0.17555569 -0.095377624 -0.22758554 -0.19177154 0.054692365
-0.026060134 -0.1477817 0.1542285 -0.1356205 0.036825594 0.072839744 -0.00010397757 -0.06918436
-0.04347224 -0.11813627 0.13335742 -0.25662157 0.029166956 -0.04701763 -0.016354844 -0.030422684
0.2552658 0.14339642 -0.1865986 0.084336594 0.050578848 -0.12957323 0.044812936 -0.05196277
0.21179037 -0.02538631 -0.054634098 -0.12740105 0.072721414 -0.07138345 0.1824599 0.19137122
-0.046916075 0.042306047 0.12335894 0.09052427 -0.12968285 0.19249654 0.16291986 0.15645212

bias f4 [64]
00000000: e0f3 173d d4d9 663d 67cf c9bd 1216 85bd
00000010: 5ccc 9c3d dae6 7dbd cecd e73c d565 2abd
00000020: c112 fc3d 1471 5ebc 2a6a 00be d61f a8bc
00000030: c043 70bc 18eb 8b3d 8dab 49bd 5595 be3d
00000040: f9ee dfbb 8a30 90bc 5b91 743c 2ffa 3f3e
00000050: a362 0d3e 4f67 e8bc c585 d93d c7c9 9b3c
00000060: 7ac1 b8bb 226b ad3d 35b2 b7bc 0973 5a3d
00000070: 9d0c 593e 0a0a 243d b15e fc3d 0edb 613d
00000080: 70de 8b3d 29ab bd3d 119c b2bd ecdb 92bd
00000090: e84a 3dbd f2b6 d5bc f8f1 bcbd 7d31 b4bd
000000a0: 4353 debd 0a95 70bd f8e1 d0bd 789f a53d
000000b0: 52f3 7a3c 617c e7bd 0040 bdbc 46d2 2f3d
000000c0: 4e73 033e 14f7 1f3e 7857 11bb cba6 bf3d
000000d0: e994 debc 813c debd 56ce 193e 58dc 443d
000000e0: 7097 2c3b 70a0 bebc 3cb6 023e ec10 9bbc
000000f0: fd8f 1ebe 388e 90bd 2867 393d 104b c73c
0.03709781 0.05636008 -0.09854012 -0.0649835 0.07656166 -0.061987735 0.028296378 -0.04160102
0.123082645 -0.013576765 -0.12540498 -0.020522993 -0.01466459 0.0683195 -0.04923587 0.093058266
-0.0068339077 -0.01760127 0.014927234 0.18747781 0.13807158 -0.028369574 0.10621218 0.019017113
-0.0056382986 0.084676996 -0.022423843 0.053332362 0.21196218 0.040048636 0.123227485 0.055140547
0.06829536 0.09261162 -0.087211736 -0.07170853 -0.046214014 -0.026088212 -0.092258394 -0.08798502
-0.10855725 -0.058735885 -0.1019935 0.08087057 0.015316801 -0.1130302 -0.023101807 0.04292514
0.12836954 0.15621597 -0.002217738 0.09357985 -0.027170615 -0.10851384 0.15020117 0.0480617
0.002633538 -0.023269862 0.1276483 -0.018928967 -0.15484615 -0.07058376 0.045264393 0.024327785

weight f4 [10, 64]
00000000: 696c 38bd 8763 b13e 3abb c9bd 5271 e0be
00000010: ce7c 6dbe 175f ffbe 3e2f b33d 6531 e13d
00000020: 33ea cf3e 0f93 813d 1920 913d 2dae 96bb
00000030: 15a0 f13c 0dcb c33e 8708 f33c 8d8b 37be
00000040: 7d2d 80bc 973d 363e 2f3a e13e d311 0cbf
00000050: e7c9 5f3e 1c17 b9be a2c2 82bd e2fa 503e
00000060: 7848 3b3e c493 2fbf 696b fb3e ed7a 103d
00000070: 1f81 9b3d e441 08bc 043d 24bd 7534 76be
00000080: b711 e33c 8309 8e3e a4a4 84bc 7dae a2be
00000090: 1024 0b3e aa99 febe efc7 04be 6b5c e03e
000000a0: 01db 643d 9778 3dbd 3185 3fbe f82a 30bd
000000b0: b303 6e3e ac5c 7abe ff64 e3be 3c11 cbbd
000000c0: df71 7cbe 02bf cebe 511a 113d 32cc e5be
000000d0: 41c4 0dbf 298f 58be ef2d a83e a512 afbe
000000e0: 465a d13e c638 7b3d 3fab 243e 431e 3dbe
000000f0: 4094 593e e1b1 debd 07e1 1bbd 3d6e bbbe
00000100: 54fc e9bd 5a46 e7be e7e6 0abd ac8c 023e
00000110: 0d82 04be 123c 843e 97ce f73e 293d c33c
00000120: 0964 ddbe 5f8f 9bbe df94 db3e b467 763c
00000130: b4c6 293e 5505 4d3c f216 023e d3a0 3e3e
00000140: 7a3f 88bd b514 72be 1e85 00bf 42dc 3cbf
00000150: 02af d9bd f86d 3e3e e8ca a1be 137b 953e
00000160: 6820 6e3d 1346 9e3e 11fb 3f3e a62d f8be
00000170: d270 7abe c006 96be 1a3d 5a3e 1d34 e83e
00000180: 3b65 02bd f202 20bb adc8 49be b3ea 043f
00000190: 4196 48be 3fd8 e9bd c7e8 8e3d af04 983e
000001a0: 212d cb3e d9c0 303e 1c9c a53e f11c afbe
000001b0: c988 80be a649 babc 77b5 053f 2d7d 193e
000001c0: 24de 6dbe 193f d0be eb24 7cbd 8e42 fc3b
000001d0: 1098 d83e 7b33 4f3e 4b24 b93e a47c 003f
000001e0: 7ace ccbe 370c 9ebe 9a46 d5bd 2dea 2ebc
000001f0: 1719 b53e 454e 893e 31ad 15bf 847c d83e
00000200: 6fad 503e 56c0 e8bd 9ab8 cd3e 11f1 41bd
00000210: 5171 643e 4017 39bf 2003 a1bd da99 71bd
00000220: 8275 11bd 5182 633e e0e1 10bd 48a3 02bf
00000230: 72e8 863d 81fe 713e 8b25 2dbe 3d45 92bd
00000240: 75ef 6ebe b32b 5b3e 78a9 ccbe f7df c5be
00000250: 2bdd b4bd c8b3 f03e a6b5 94be 05f4 08bf
00000260: 0923 e3bd cc02 1a3f 447a ef3e ffb9 29be
00000270: 1a55 843e 6f70 50be 381f 1a3e 3cc6 42bf
00000280: c8aa 693e cfa3 50be 6738 703e 8409 09bf
00000290: b1fc 7dbe c889 3e3e a6b5 b9be 3144 31be
000002a0: 6ca6 2e3f 2655 2e3e 1e35 20bd 6ccb 08be
000002b0: a588 f2be 0d56 bf3e b3bd 013f e0ee 3cbd
000002c0: c3c6 913e 14fc cb3e bddc 28be 26d2 79be
000002d0: c2ae edbe 43aa 14bc ce5e be3d f646 b3be
000002e0: dff1 8b3e 88ba a13e 32d4 82be adca 8fbe
000002f0: dcd7 a03e 7d79 a3bd ae59 e93e fd1a e53d
00000300: 1c11 4b3d 1fad c33e f21e 013f 8f5e 01bf
00000310: 67b6 66be 5e09 7a3e fef2 aa3d 9a84 d63d
00000320: d52e 0d3f 49e2 0c3f 8a83 00bb ebbf 6dbd
00000330: 48f8 16be 65a8 3fbe 27af 59be b9b3 65be
00000340: 6e7b 0e3e 8d50 acbe 1074 b0be 349e aa3e
00000350: a495 acbe b7ee a83e 25af 1e3e 8b5f 033f
00000360: fb91 85be 5192 ad3c 61cd a5be 2231 22bf
00000370: de7a de3d 143f 5bbe becb 523d 99fc c43e
00000380: f2fb fcbc 9aaf 573d ec53 783e 7cf5 bdbe
00000390: 5ef4 1e3e 7e3b 88be 20da a5bd 7b67 67be
000003a0: f070 21bd 4ea0 70bd e40a b3bd df42 db3d
000003b0: 0209 973e 0629 a73e 6fb7 6c3b 7cb2 5dbe
000003c0: 768f 333f e7dd a83e da1a b43d 224f 993e
000003d0: 5df7 dcbd 053f 0abe 3c43 2fbf f648 e43e
000003e0: ecf0 93be f086 24be 9d6e dfbe 9ba8 e4bd
000003f0: c66d b73e eb19 b3bd e42f 6dbe a691 913e
-0.045025263 0.34646246 -0.09850164 -0.43836457 -0.2319214 -0.49877235 0.08749245 0.109957494
0.40608367 0.06326877 0.070862 -0.0045984 0.029495278 0.38240853 0.029667152 -0.17924328
-0.01564669 0.17796932 0.43989703 -0.547147 0.21854363 -0.36150444 -0.063847795 0.20408204
0.18289363 -0.6858485 0.49105385 0.03527348 0.07592987 -0.008316491 -0.04009725 -0.24043448
0.027718408 0.27741632 -0.016191788 -0.3177375 0.13587976 -0.4972661 -0.12966894 0.4382051
0.05587292 -0.04625758 -0.18703152 -0.04300973 0.23243599 -0.24449414 -0.4441299 -0.099153966
-0.24652813 -0.40380102 0.035425488 -0.4488235 -0.55377585 -0.21148361 0.32847545 -0.34193912
0.40889186 0.06133344 0.1608095 -0.18468575 0.21247959 -0.108737715 -0.0380564 -0.36607543
-0.11425081 -0.4517086 -0.033911612 0.12748975 -0.12940235 0.2582708 0.48399803 0.023832874
-0.43240383 -0.3038282 0.42887017 0.015039373 0.16579705 0.012513478 0.12704065 0.18616037
-0.06652732 -0.23640712 -0.5020312 -0.73773587 -0.10629083 0.18596637 -0.31600118 0.2919546
0.058136374 0.30912837 0.18748118 -0.48472327 -0.244571 -0.29302025 0.21312371 0.4535226
-0.031834822 -0.0024415818 -0.19705458 0.5192062 -0.19588567 -0.11418199 0.069779925 0.29691073
0.39682868 0.17261066 0.32345665 -0.34201768 -0.2510436 -0.022740196 0.5223002 0.14989157
-0.23229271 -0.4067314 -0.061558645 0.0076983636 0.42303514 0.20234482 0.36160502 0.50190187
-0.4000128 -0.30868694 -0.10413857 -0.010675949 0.35370705 0.26817527 -0.58467394 0.42282498
0.2037866 -0.1136481 0.40179902 -0.04734904 0.22308852 -0.723011 -0.07861924 -0.058984615
-0.035512455 0.2221768 -0.03537166 -0.510304 0.06587304 0.23632242 -0.16908853 -0.071421124
-0.23333533 0.21403389 -0.39973044 -0.38647434 -0.08831247 0.47012162 -0.29044837 -0.53497344
-0.11090667 0.6016052 0.4677297 -0.16574858 0.25846177 -0.2035539 0.15050972 -0.7608373
0.22819054 -0.20374988 0.23459016 -0.53530145 -0.24803425 0.18607247 -0.362714 -0.17311169
0.6822269 0.17024669 -0.039113156 -0.1335885 -0.47369877 0.3737034 0.50680083 -0.046126246
0.28471956 0.39840758 -0.16490455 -0.24396572 -0.46422392 -0.009073797 0.09295426 -0.35015076
0.2733297 0.31587625 -0.25552517 -0.28084317 0.31414688 -0.079821564 0.45576233 0.11186788
0.049576864 0.38218018 0.50437844 -0.5053491 -0.22530518 0.24417636 0.08347128 0.104745105
0.55149585 0.55032784 -0.0019609653 -0.058044355 -0.1474315 -0.18716581 -0.21258222 -0.2243184
0.13914272 -0.33655205 -0.3446355 0.33323824 -0.33707917 0.32994625 0.154965 0.5131766
-0.26087937 0.021187933 -0.32383254 -0.6335622 0.10863279 -0.21410781 0.051463835 0.38473967
-0.030881856 0.0526577 0.24250764 -0.37101352 0.15522906 -0.2660789 -0.08098245 -0.22598068
-0.039414346 -0.05874663 -0.087423116 0.10706114 0.2949906 0.32648486 0.0036120077 -0.21650118
0.7014078 0.32981798 0.08794184 0.29943186 -0.10789368 -0.13500603 -0.68461967 0.44586915
-0.28894746 -0.160671 -0.4363908 -0.111649714 0.35825938 -0.08745178 -0.231628 0.28431433

bias f4 [10]
00000000: fe87 6e3c 6f5e 393d ce64 ccbd cb0c 273d
00000010: 7082 dbbc 20a4 093c 1514 0bbd 34d2 e1bd
00000020: 1435 413e 6c72 efbb
0.01455879 0.045256075 -0.099801645 0.040783685 -0.026795596 0.008400947 -0.0339547 -0.11026421
0.18867904 -0.0073073413
